…
WARNING:tensorflow:Error in loading the saved optimizer state. As a result, your model is starting with a freshly initialized optimizer.
Training Accuracy_score: 85.95 %
Testing Accuracy_score: 85.47 %




ModelANN_11.h5 

WARNING:tensorflow:Error in loading the saved optimizer state. As a result, your model is starting with a freshly initialized optimizer.
Model: "sequential"
_________________________________________________________________
Layer (type)                 Output Shape              Param #   
=================================================================
dense (Dense)                (None, 10)                110       
_________________________________________________________________
dense_1 (Dense)              (None, 224)               2464      
_________________________________________________________________
leaky_re_lu (LeakyReLU)      (None, 224)               0         
_________________________________________________________________
batch_normalization (BatchNo (None, 224)               896       
_________________________________________________________________
dropout (Dropout)            (None, 224)               0         
_________________________________________________________________
dense_2 (Dense)              (None, 224)               50400     
_________________________________________________________________
leaky_re_lu_1 (LeakyReLU)    (None, 224)               0         
_________________________________________________________________
batch_normalization_1 (Batch (None, 224)               896       
_________________________________________________________________
dropout_1 (Dropout)          (None, 224)               0         
_________________________________________________________________
dense_3 (Dense)              (None, 224)               50400     
_________________________________________________________________
leaky_re_lu_2 (LeakyReLU)    (None, 224)               0         
_________________________________________________________________
batch_normalization_2 (Batch (None, 224)               896       
_________________________________________________________________
dropout_2 (Dropout)          (None, 224)               0         
_________________________________________________________________
dense_4 (Dense)              (None, 224)               50400     
_________________________________________________________________
leaky_re_lu_3 (LeakyReLU)    (None, 224)               0         
_________________________________________________________________
batch_normalization_3 (Batch (None, 224)               896       
_________________________________________________________________
dropout_3 (Dropout)          (None, 224)               0         
_________________________________________________________________
dense_5 (Dense)              (None, 224)               50400     
_________________________________________________________________
leaky_re_lu_4 (LeakyReLU)    (None, 224)               0         
_________________________________________________________________
batch_normalization_4 (Batch (None, 224)               896       
_________________________________________________________________
dropout_4 (Dropout)          (None, 224)               0         
_________________________________________________________________
dense_6 (Dense)              (None, 224)               50400     
_________________________________________________________________
leaky_re_lu_5 (LeakyReLU)    (None, 224)               0         
_________________________________________________________________
batch_normalization_5 (Batch (None, 224)               896       
_________________________________________________________________
dropout_5 (Dropout)          (None, 224)               0         
_________________________________________________________________
dense_7 (Dense)              (None, 23)                5175      
=================================================================
Total params: 265,125
Trainable params: 262,437
Non-trainable params: 2,688
_________________________________________________________________
None 


ModelANN_8.h5 

WARNING:tensorflow:Error in loading the saved optimizer state. As a result, your model is starting with a freshly initialized optimizer.
Model: "sequential"
_________________________________________________________________
Layer (type)                 Output Shape              Param #   
=================================================================
dense (Dense)                (None, 10)                110       
_________________________________________________________________
dense_1 (Dense)              (None, 256)               2816      
_________________________________________________________________
leaky_re_lu (LeakyReLU)      (None, 256)               0         
_________________________________________________________________
batch_normalization (BatchNo (None, 256)               1024      
_________________________________________________________________
dropout (Dropout)            (None, 256)               0         
_________________________________________________________________
dense_2 (Dense)              (None, 256)               65792     
_________________________________________________________________
leaky_re_lu_1 (LeakyReLU)    (None, 256)               0         
_________________________________________________________________
batch_normalization_1 (Batch (None, 256)               1024      
_________________________________________________________________
dropout_1 (Dropout)          (None, 256)               0         
_________________________________________________________________
dense_3 (Dense)              (None, 256)               65792     
_________________________________________________________________
leaky_re_lu_2 (LeakyReLU)    (None, 256)               0         
_________________________________________________________________
batch_normalization_2 (Batch (None, 256)               1024      
_________________________________________________________________
dropout_2 (Dropout)          (None, 256)               0         
_________________________________________________________________
dense_4 (Dense)              (None, 23)                5911      
=================================================================
Total params: 143,493
Trainable params: 141,957
Non-trainable params: 1,536
_________________________________________________________________
None 


ModelANN_13.h5 

WARNING:tensorflow:Error in loading the saved optimizer state. As a result, your model is starting with a freshly initialized optimizer.
Model: "sequential"
_________________________________________________________________
Layer (type)                 Output Shape              Param #   
=================================================================
dense (Dense)                (None, 10)                110       
_________________________________________________________________
dense_1 (Dense)              (None, 240)               2640      
_________________________________________________________________
leaky_re_lu (LeakyReLU)      (None, 240)               0         
_________________________________________________________________
batch_normalization (BatchNo (None, 240)               960       
_________________________________________________________________
dropout (Dropout)            (None, 240)               0         
_________________________________________________________________
dense_2 (Dense)              (None, 240)               57840     
_________________________________________________________________
leaky_re_lu_1 (LeakyReLU)    (None, 240)               0         
_________________________________________________________________
batch_normalization_1 (Batch (None, 240)               960       
_________________________________________________________________
dropout_1 (Dropout)          (None, 240)               0         
_________________________________________________________________
dense_3 (Dense)              (None, 240)               57840     
_________________________________________________________________
leaky_re_lu_2 (LeakyReLU)    (None, 240)               0         
_________________________________________________________________
batch_normalization_2 (Batch (None, 240)               960       
_________________________________________________________________
dropout_2 (Dropout)          (None, 240)               0         
_________________________________________________________________
dense_4 (Dense)              (None, 240)               57840     
_________________________________________________________________
leaky_re_lu_3 (LeakyReLU)    (None, 240)               0         
_________________________________________________________________
batch_normalization_3 (Batch (None, 240)               960       
_________________________________________________________________
dropout_3 (Dropout)          (None, 240)               0         
_________________________________________________________________
dense_5 (Dense)              (None, 240)               57840     
_________________________________________________________________
leaky_re_lu_4 (LeakyReLU)    (None, 240)               0         
_________________________________________________________________
batch_normalization_4 (Batch (None, 240)               960       
_________________________________________________________________
dropout_4 (Dropout)          (None, 240)               0         
_________________________________________________________________
dense_6 (Dense)              (None, 240)               57840     
_________________________________________________________________
leaky_re_lu_5 (LeakyReLU)    (None, 240)               0         
_________________________________________________________________
batch_normalization_5 (Batch (None, 240)               960       
_________________________________________________________________
dropout_5 (Dropout)          (None, 240)               0         
_________________________________________________________________
dense_7 (Dense)              (None, 23)                5543      
=================================================================
Total params: 303,253
Trainable params: 300,373
Non-trainable params: 2,880
_________________________________________________________________
None 


ModelANN_7.h5 

WARNING:tensorflow:Error in loading the saved optimizer state. As a result, your model is starting with a freshly initialized optimizer.
Model: "sequential"
_________________________________________________________________
Layer (type)                 Output Shape              Param #   
=================================================================
dense (Dense)                (None, 10)                110       
_________________________________________________________________
dense_1 (Dense)              (None, 176)               1936      
_________________________________________________________________
leaky_re_lu (LeakyReLU)      (None, 176)               0         
_________________________________________________________________
batch_normalization (BatchNo (None, 176)               704       
_________________________________________________________________
dropout (Dropout)            (None, 176)               0         
_________________________________________________________________
dense_2 (Dense)              (None, 176)               31152     
_________________________________________________________________
leaky_re_lu_1 (LeakyReLU)    (None, 176)               0         
_________________________________________________________________
batch_normalization_1 (Batch (None, 176)               704       
_________________________________________________________________
dropout_1 (Dropout)          (None, 176)               0         
_________________________________________________________________
dense_3 (Dense)              (None, 176)               31152     
_________________________________________________________________
leaky_re_lu_2 (LeakyReLU)    (None, 176)               0         
_________________________________________________________________
batch_normalization_2 (Batch (None, 176)               704       
_________________________________________________________________
dropout_2 (Dropout)          (None, 176)               0         
_________________________________________________________________
dense_4 (Dense)              (None, 23)                4071      
=================================================================
Total params: 70,533
Trainable params: 69,477
Non-trainable params: 1,056
_________________________________________________________________
None 


ModelANN_0.h5 

WARNING:tensorflow:Error in loading the saved optimizer state. As a result, your model is starting with a freshly initialized optimizer.
Model: "sequential"
_________________________________________________________________
Layer (type)                 Output Shape              Param #   
=================================================================
dense (Dense)                (None, 10)                110       
_________________________________________________________________
dense_1 (Dense)              (None, 432)               4752      
_________________________________________________________________
leaky_re_lu (LeakyReLU)      (None, 432)               0         
_________________________________________________________________
batch_normalization (BatchNo (None, 432)               1728      
_________________________________________________________________
dropout (Dropout)            (None, 432)               0         
_________________________________________________________________
dense_2 (Dense)              (None, 432)               187056    
_________________________________________________________________
leaky_re_lu_1 (LeakyReLU)    (None, 432)               0         
_________________________________________________________________
batch_normalization_1 (Batch (None, 432)               1728      
_________________________________________________________________
dropout_1 (Dropout)          (None, 432)               0         
_________________________________________________________________
dense_3 (Dense)              (None, 432)               187056    
_________________________________________________________________
leaky_re_lu_2 (LeakyReLU)    (None, 432)               0         
_________________________________________________________________
batch_normalization_2 (Batch (None, 432)               1728      
_________________________________________________________________
dropout_2 (Dropout)          (None, 432)               0         
_________________________________________________________________
dense_4 (Dense)              (None, 432)               187056    
_________________________________________________________________
leaky_re_lu_3 (LeakyReLU)    (None, 432)               0         
_________________________________________________________________
batch_normalization_3 (Batch (None, 432)               1728      
_________________________________________________________________
dropout_3 (Dropout)          (None, 432)               0         
_________________________________________________________________
dense_5 (Dense)              (None, 23)                9959      
=================================================================
Total params: 582,901
Trainable params: 579,445
Non-trainable params: 3,456
_________________________________________________________________
None 


ModelANN_4.h5 

WARNING:tensorflow:Error in loading the saved optimizer state. As a result, your model is starting with a freshly initialized optimizer.
Model: "sequential"
_________________________________________________________________
Layer (type)                 Output Shape              Param #   
=================================================================
dense (Dense)                (None, 10)                110       
_________________________________________________________________
dense_1 (Dense)              (None, 512)               5632      
_________________________________________________________________
leaky_re_lu (LeakyReLU)      (None, 512)               0         
_________________________________________________________________
batch_normalization (BatchNo (None, 512)               2048      
_________________________________________________________________
dropout (Dropout)            (None, 512)               0         
_________________________________________________________________
dense_2 (Dense)              (None, 512)               262656    
_________________________________________________________________
leaky_re_lu_1 (LeakyReLU)    (None, 512)               0         
_________________________________________________________________
batch_normalization_1 (Batch (None, 512)               2048      
_________________________________________________________________
dropout_1 (Dropout)          (None, 512)               0         
_________________________________________________________________
dense_3 (Dense)              (None, 512)               262656    
_________________________________________________________________
leaky_re_lu_2 (LeakyReLU)    (None, 512)               0         
_________________________________________________________________
batch_normalization_2 (Batch (None, 512)               2048      
_________________________________________________________________
dropout_2 (Dropout)          (None, 512)               0         
_________________________________________________________________
dense_4 (Dense)              (None, 512)               262656    
_________________________________________________________________
leaky_re_lu_3 (LeakyReLU)    (None, 512)               0         
_________________________________________________________________
batch_normalization_3 (Batch (None, 512)               2048      
_________________________________________________________________
dropout_3 (Dropout)          (None, 512)               0         
_________________________________________________________________
dense_5 (Dense)              (None, 512)               262656    
_________________________________________________________________
leaky_re_lu_4 (LeakyReLU)    (None, 512)               0         
_________________________________________________________________
batch_normalization_4 (Batch (None, 512)               2048      
_________________________________________________________________
dropout_4 (Dropout)          (None, 512)               0         
_________________________________________________________________
dense_6 (Dense)              (None, 23)                11799     
=================================================================
Total params: 1,078,405
Trainable params: 1,073,285
Non-trainable params: 5,120
_________________________________________________________________
None 


ModelANN_14.h5 

WARNING:tensorflow:Error in loading the saved optimizer state. As a result, your model is starting with a freshly initialized optimizer.
Model: "sequential"
_________________________________________________________________
Layer (type)                 Output Shape              Param #   
=================================================================
dense (Dense)                (None, 10)                110       
_________________________________________________________________
dense_1 (Dense)              (None, 480)               5280      
_________________________________________________________________
leaky_re_lu (LeakyReLU)      (None, 480)               0         
_________________________________________________________________
batch_normalization (BatchNo (None, 480)               1920      
_________________________________________________________________
dropout (Dropout)            (None, 480)               0         
_________________________________________________________________
dense_2 (Dense)              (None, 480)               230880    
_________________________________________________________________
leaky_re_lu_1 (LeakyReLU)    (None, 480)               0         
_________________________________________________________________
batch_normalization_1 (Batch (None, 480)               1920      
_________________________________________________________________
dropout_1 (Dropout)          (None, 480)               0         
_________________________________________________________________
dense_3 (Dense)              (None, 480)               230880    
_________________________________________________________________
leaky_re_lu_2 (LeakyReLU)    (None, 480)               0         
_________________________________________________________________
batch_normalization_2 (Batch (None, 480)               1920      
_________________________________________________________________
dropout_2 (Dropout)          (None, 480)               0         
_________________________________________________________________
dense_4 (Dense)              (None, 23)                11063     
=================================================================
Total params: 483,973
Trainable params: 481,093
Non-trainable params: 2,880
_________________________________________________________________
None 


ModelANN_12.h5 

WARNING:tensorflow:Error in loading the saved optimizer state. As a result, your model is starting with a freshly initialized optimizer.
Model: "sequential"
_________________________________________________________________
Layer (type)                 Output Shape              Param #   
=================================================================
dense (Dense)                (None, 10)                110       
_________________________________________________________________
dense_1 (Dense)              (None, 480)               5280      
_________________________________________________________________
leaky_re_lu (LeakyReLU)      (None, 480)               0         
_________________________________________________________________
batch_normalization (BatchNo (None, 480)               1920      
_________________________________________________________________
dropout (Dropout)            (None, 480)               0         
_________________________________________________________________
dense_2 (Dense)              (None, 480)               230880    
_________________________________________________________________
leaky_re_lu_1 (LeakyReLU)    (None, 480)               0         
_________________________________________________________________
batch_normalization_1 (Batch (None, 480)               1920      
_________________________________________________________________
dropout_1 (Dropout)          (None, 480)               0         
_________________________________________________________________
dense_3 (Dense)              (None, 480)               230880    
_________________________________________________________________
leaky_re_lu_2 (LeakyReLU)    (None, 480)               0         
_________________________________________________________________
batch_normalization_2 (Batch (None, 480)               1920      
_________________________________________________________________
dropout_2 (Dropout)          (None, 480)               0         
_________________________________________________________________
dense_4 (Dense)              (None, 480)               230880    
_________________________________________________________________
leaky_re_lu_3 (LeakyReLU)    (None, 480)               0         
_________________________________________________________________
batch_normalization_3 (Batch (None, 480)               1920      
_________________________________________________________________
dropout_3 (Dropout)          (None, 480)               0         
_________________________________________________________________
dense_5 (Dense)              (None, 480)               230880    
_________________________________________________________________
leaky_re_lu_4 (LeakyReLU)    (None, 480)               0         
_________________________________________________________________
batch_normalization_4 (Batch (None, 480)               1920      
_________________________________________________________________
dropout_4 (Dropout)          (None, 480)               0         
_________________________________________________________________
dense_6 (Dense)              (None, 23)                11063     
=================================================================
Total params: 949,573
Trainable params: 944,773
Non-trainable params: 4,800
_________________________________________________________________
None 


ModelANN_2.h5 

WARNING:tensorflow:Error in loading the saved optimizer state. As a result, your model is starting with a freshly initialized optimizer.
Model: "sequential"
_________________________________________________________________
Layer (type)                 Output Shape              Param #   
=================================================================
dense (Dense)                (None, 10)                110       
_________________________________________________________________
dense_1 (Dense)              (None, 400)               4400      
_________________________________________________________________
leaky_re_lu (LeakyReLU)      (None, 400)               0         
_________________________________________________________________
batch_normalization (BatchNo (None, 400)               1600      
_________________________________________________________________
dropout (Dropout)            (None, 400)               0         
_________________________________________________________________
dense_2 (Dense)              (None, 400)               160400    
_________________________________________________________________
leaky_re_lu_1 (LeakyReLU)    (None, 400)               0         
_________________________________________________________________
batch_normalization_1 (Batch (None, 400)               1600      
_________________________________________________________________
dropout_1 (Dropout)          (None, 400)               0         
_________________________________________________________________
dense_3 (Dense)              (None, 400)               160400    
_________________________________________________________________
leaky_re_lu_2 (LeakyReLU)    (None, 400)               0         
_________________________________________________________________
batch_normalization_2 (Batch (None, 400)               1600      
_________________________________________________________________
dropout_2 (Dropout)          (None, 400)               0         
_________________________________________________________________
dense_4 (Dense)              (None, 400)               160400    
_________________________________________________________________
leaky_re_lu_3 (LeakyReLU)    (None, 400)               0         
_________________________________________________________________
batch_normalization_3 (Batch (None, 400)               1600      
_________________________________________________________________
dropout_3 (Dropout)          (None, 400)               0         
_________________________________________________________________
dense_5 (Dense)              (None, 400)               160400    
_________________________________________________________________
leaky_re_lu_4 (LeakyReLU)    (None, 400)               0         
_________________________________________________________________
batch_normalization_4 (Batch (None, 400)               1600      
_________________________________________________________________
dropout_4 (Dropout)          (None, 400)               0         
_________________________________________________________________
dense_6 (Dense)              (None, 23)                9223      
=================================================================
Total params: 663,333
Trainable params: 659,333
Non-trainable params: 4,000
_________________________________________________________________
None 


ModelANN_3.h5 

WARNING:tensorflow:Error in loading the saved optimizer state. As a result, your model is starting with a freshly initialized optimizer.
Model: "sequential"
_________________________________________________________________
Layer (type)                 Output Shape              Param #   
=================================================================
dense (Dense)                (None, 10)                110       
_________________________________________________________________
dense_1 (Dense)              (None, 464)               5104      
_________________________________________________________________
leaky_re_lu (LeakyReLU)      (None, 464)               0         
_________________________________________________________________
batch_normalization (BatchNo (None, 464)               1856      
_________________________________________________________________
dropout (Dropout)            (None, 464)               0         
_________________________________________________________________
dense_2 (Dense)              (None, 464)               215760    
_________________________________________________________________
leaky_re_lu_1 (LeakyReLU)    (None, 464)               0         
_________________________________________________________________
batch_normalization_1 (Batch (None, 464)               1856      
_________________________________________________________________
dropout_1 (Dropout)          (None, 464)               0         
_________________________________________________________________
dense_3 (Dense)              (None, 464)               215760    
_________________________________________________________________
leaky_re_lu_2 (LeakyReLU)    (None, 464)               0         
_________________________________________________________________
batch_normalization_2 (Batch (None, 464)               1856      
_________________________________________________________________
dropout_2 (Dropout)          (None, 464)               0         
_________________________________________________________________
dense_4 (Dense)              (None, 464)               215760    
_________________________________________________________________
leaky_re_lu_3 (LeakyReLU)    (None, 464)               0         
_________________________________________________________________
batch_normalization_3 (Batch (None, 464)               1856      
_________________________________________________________________
dropout_3 (Dropout)          (None, 464)               0         
_________________________________________________________________
dense_5 (Dense)              (None, 23)                10695     
=================================================================
Total params: 670,613
Trainable params: 666,901
Non-trainable params: 3,712
_________________________________________________________________
None 


ModelANN_9.h5 

WARNING:tensorflow:Error in loading the saved optimizer state. As a result, your model is starting with a freshly initialized optimizer.
Model: "sequential"
_________________________________________________________________
Layer (type)                 Output Shape              Param #   
=================================================================
dense (Dense)                (None, 10)                110       
_________________________________________________________________
dense_1 (Dense)              (None, 256)               2816      
_________________________________________________________________
leaky_re_lu (LeakyReLU)      (None, 256)               0         
_________________________________________________________________
batch_normalization (BatchNo (None, 256)               1024      
_________________________________________________________________
dropout (Dropout)            (None, 256)               0         
_________________________________________________________________
dense_2 (Dense)              (None, 256)               65792     
_________________________________________________________________
leaky_re_lu_1 (LeakyReLU)    (None, 256)               0         
_________________________________________________________________
batch_normalization_1 (Batch (None, 256)               1024      
_________________________________________________________________
dropout_1 (Dropout)          (None, 256)               0         
_________________________________________________________________
dense_3 (Dense)              (None, 23)                5911      
=================================================================
Total params: 76,677
Trainable params: 75,653
Non-trainable params: 1,024
_________________________________________________________________
None 


ModelANN_10.h5 

WARNING:tensorflow:Error in loading the saved optimizer state. As a result, your model is starting with a freshly initialized optimizer.
Model: "sequential"
_________________________________________________________________
Layer (type)                 Output Shape              Param #   
=================================================================
dense (Dense)                (None, 10)                110       
_________________________________________________________________
dense_1 (Dense)              (None, 400)               4400      
_________________________________________________________________
leaky_re_lu (LeakyReLU)      (None, 400)               0         
_________________________________________________________________
batch_normalization (BatchNo (None, 400)               1600      
_________________________________________________________________
dropout (Dropout)            (None, 400)               0         
_________________________________________________________________
dense_2 (Dense)              (None, 400)               160400    
_________________________________________________________________
leaky_re_lu_1 (LeakyReLU)    (None, 400)               0         
_________________________________________________________________
batch_normalization_1 (Batch (None, 400)               1600      
_________________________________________________________________
dropout_1 (Dropout)          (None, 400)               0         
_________________________________________________________________
dense_3 (Dense)              (None, 23)                9223      
=================================================================
Total params: 177,333
Trainable params: 175,733
Non-trainable params: 1,600
_________________________________________________________________
None 


ModelANN_1.h5 

WARNING:tensorflow:Error in loading the saved optimizer state. As a result, your model is starting with a freshly initialized optimizer.
Model: "sequential"
_________________________________________________________________
Layer (type)                 Output Shape              Param #   
=================================================================
dense (Dense)                (None, 10)                110       
_________________________________________________________________
dense_1 (Dense)              (None, 480)               5280      
_________________________________________________________________
leaky_re_lu (LeakyReLU)      (None, 480)               0         
_________________________________________________________________
batch_normalization (BatchNo (None, 480)               1920      
_________________________________________________________________
dropout (Dropout)            (None, 480)               0         
_________________________________________________________________
dense_2 (Dense)              (None, 480)               230880    
_________________________________________________________________
leaky_re_lu_1 (LeakyReLU)    (None, 480)               0         
_________________________________________________________________
batch_normalization_1 (Batch (None, 480)               1920      
_________________________________________________________________
dropout_1 (Dropout)          (None, 480)               0         
_________________________________________________________________
dense_3 (Dense)              (None, 480)               230880    
_________________________________________________________________
leaky_re_lu_2 (LeakyReLU)    (None, 480)               0         
_________________________________________________________________
batch_normalization_2 (Batch (None, 480)               1920      
_________________________________________________________________
dropout_2 (Dropout)          (None, 480)               0         
_________________________________________________________________
dense_4 (Dense)              (None, 480)               230880    
_________________________________________________________________
leaky_re_lu_3 (LeakyReLU)    (None, 480)               0         
_________________________________________________________________
batch_normalization_3 (Batch (None, 480)               1920      
_________________________________________________________________
dropout_3 (Dropout)          (None, 480)               0         
_________________________________________________________________
dense_5 (Dense)              (None, 23)                11063     
=================================================================
Total params: 716,773
Trainable params: 712,933
Non-trainable params: 3,840
_________________________________________________________________
None 


ModelANN_5.h5 

WARNING:tensorflow:Error in loading the saved optimizer state. As a result, your model is starting with a freshly initialized optimizer.
Model: "sequential"
_________________________________________________________________
Layer (type)                 Output Shape              Param #   
=================================================================
dense (Dense)                (None, 10)                110       
_________________________________________________________________
dense_1 (Dense)              (None, 464)               5104      
_________________________________________________________________
leaky_re_lu (LeakyReLU)      (None, 464)               0         
_________________________________________________________________
batch_normalization (BatchNo (None, 464)               1856      
_________________________________________________________________
dropout (Dropout)            (None, 464)               0         
_________________________________________________________________
dense_2 (Dense)              (None, 464)               215760    
_________________________________________________________________
leaky_re_lu_1 (LeakyReLU)    (None, 464)               0         
_________________________________________________________________
batch_normalization_1 (Batch (None, 464)               1856      
_________________________________________________________________
dropout_1 (Dropout)          (None, 464)               0         
_________________________________________________________________
dense_3 (Dense)              (None, 464)               215760    
_________________________________________________________________
leaky_re_lu_2 (LeakyReLU)    (None, 464)               0         
_________________________________________________________________
batch_normalization_2 (Batch (None, 464)               1856      
_________________________________________________________________
dropout_2 (Dropout)          (None, 464)               0         
_________________________________________________________________
dense_4 (Dense)              (None, 464)               215760    
_________________________________________________________________
leaky_re_lu_3 (LeakyReLU)    (None, 464)               0         
_________________________________________________________________
batch_normalization_3 (Batch (None, 464)               1856      
_________________________________________________________________
dropout_3 (Dropout)          (None, 464)               0         
_________________________________________________________________
dense_5 (Dense)              (None, 23)                10695     
=================================================================
Total params: 670,613
Trainable params: 666,901
Non-trainable params: 3,712
_________________________________________________________________
None 


ModelANN_6.h5 

WARNING:tensorflow:Error in loading the saved optimizer state. As a result, your model is starting with a freshly initialized optimizer.
Model: "sequential"
_________________________________________________________________
Layer (type)                 Output Shape              Param #   
=================================================================
dense (Dense)                (None, 10)                110       
_________________________________________________________________
dense_1 (Dense)              (None, 400)               4400      
_________________________________________________________________
leaky_re_lu (LeakyReLU)      (None, 400)               0         
_________________________________________________________________
batch_normalization (BatchNo (None, 400)               1600      
_________________________________________________________________
dropout (Dropout)            (None, 400)               0         
_________________________________________________________________
dense_2 (Dense)              (None, 400)               160400    
_________________________________________________________________
leaky_re_lu_1 (LeakyReLU)    (None, 400)               0         
_________________________________________________________________
batch_normalization_1 (Batch (None, 400)               1600      
_________________________________________________________________
dropout_1 (Dropout)          (None, 400)               0         
_________________________________________________________________
dense_3 (Dense)              (None, 400)               160400    
_________________________________________________________________
leaky_re_lu_2 (LeakyReLU)    (None, 400)               0         
_________________________________________________________________
batch_normalization_2 (Batch (None, 400)               1600      
_________________________________________________________________
dropout_2 (Dropout)          (None, 400)               0         
_________________________________________________________________
dense_4 (Dense)              (None, 400)               160400    
_________________________________________________________________
leaky_re_lu_3 (LeakyReLU)    (None, 400)               0         
_________________________________________________________________
batch_normalization_3 (Batch (None, 400)               1600      
_________________________________________________________________
dropout_3 (Dropout)          (None, 400)               0         
_________________________________________________________________
dense_5 (Dense)              (None, 400)               160400    
_________________________________________________________________
leaky_re_lu_4 (LeakyReLU)    (None, 400)               0         
_________________________________________________________________
batch_normalization_4 (Batch (None, 400)               1600      
_________________________________________________________________
dropout_4 (Dropout)          (None, 400)               0         
_________________________________________________________________
dense_6 (Dense)              (None, 23)                9223      
=================================================================
Total params: 663,333
Trainable params: 659,333
Non-trainable params: 4,000
_________________________________________________________________
None 




ModelANN_11.h5 

WARNING:tensorflow:Error in loading the saved optimizer state. As a result, your model is starting with a freshly initialized optimizer.
Training Accuracy_score: 83.44 %
…
    accuracy                           0.85     16068
   macro avg       0.87      0.85      0.85     16068
weighted avg       0.87      0.85      0.85     16068
 

Cohens kappa: 0.848075



============================================


ModelANN_Best_val_loss_04.h5 

WARNING:tensorflow:Error in loading the saved optimizer state. As a result, your model is starting with a freshly initialized optimizer.
Model: "sequential"
_________________________________________________________________
Layer (type)                 Output Shape              Param #   
=================================================================
dense (Dense)                (None, 16)                176       
_________________________________________________________________
dense_1 (Dense)              (None, 362)               6154      
_________________________________________________________________
leaky_re_lu (LeakyReLU)      (None, 362)               0         
_________________________________________________________________
batch_normalization (BatchNo (None, 362)               1448      
_________________________________________________________________
dropout (Dropout)            (None, 362)               0         
_________________________________________________________________
dense_2 (Dense)              (None, 362)               131406    
_________________________________________________________________
leaky_re_lu_1 (LeakyReLU)    (None, 362)               0         
_________________________________________________________________
batch_normalization_1 (Batch (None, 362)               1448      
_________________________________________________________________
dropout_1 (Dropout)          (None, 362)               0         
_________________________________________________________________
dense_3 (Dense)              (None, 362)               131406    
_________________________________________________________________
leaky_re_lu_2 (LeakyReLU)    (None, 362)               0         
_________________________________________________________________
batch_normalization_2 (Batch (None, 362)               1448      
_________________________________________________________________
dropout_2 (Dropout)          (None, 362)               0         
_________________________________________________________________
dense_4 (Dense)              (None, 362)               131406    
_________________________________________________________________
leaky_re_lu_3 (LeakyReLU)    (None, 362)               0         
_________________________________________________________________
batch_normalization_3 (Batch (None, 362)               1448      
_________________________________________________________________
dropout_3 (Dropout)          (None, 362)               0         
_________________________________________________________________
dense_5 (Dense)              (None, 23)                8349      
=================================================================
Total params: 414,689
Trainable params: 411,793
Non-trainable params: 2,896
_________________________________________________________________
None 


ModelANN_Best_acc_9937_val_loss_05.h5 

WARNING:tensorflow:Error in loading the saved optimizer state. As a result, your model is starting with a freshly initialized optimizer.
Model: "sequential"
_________________________________________________________________
Layer (type)                 Output Shape              Param #   
=================================================================
dense (Dense)                (None, 16)                176       
_________________________________________________________________
dense_1 (Dense)              (None, 394)               6698      
_________________________________________________________________
leaky_re_lu (LeakyReLU)      (None, 394)               0         
_________________________________________________________________
batch_normalization (BatchNo (None, 394)               1576      
_________________________________________________________________
dropout (Dropout)            (None, 394)               0         
_________________________________________________________________
dense_2 (Dense)              (None, 394)               155630    
_________________________________________________________________
leaky_re_lu_1 (LeakyReLU)    (None, 394)               0         
_________________________________________________________________
batch_normalization_1 (Batch (None, 394)               1576      
_________________________________________________________________
dropout_1 (Dropout)          (None, 394)               0         
_________________________________________________________________
dense_3 (Dense)              (None, 394)               155630    
_________________________________________________________________
leaky_re_lu_2 (LeakyReLU)    (None, 394)               0         
_________________________________________________________________
batch_normalization_2 (Batch (None, 394)               1576      
_________________________________________________________________
dropout_2 (Dropout)          (None, 394)               0         
_________________________________________________________________
dense_4 (Dense)              (None, 394)               155630    
_________________________________________________________________
leaky_re_lu_3 (LeakyReLU)    (None, 394)               0         
_________________________________________________________________
batch_normalization_3 (Batch (None, 394)               1576      
_________________________________________________________________
dropout_3 (Dropout)          (None, 394)               0         
_________________________________________________________________
dense_5 (Dense)              (None, 394)               155630    
_________________________________________________________________
leaky_re_lu_4 (LeakyReLU)    (None, 394)               0         
_________________________________________________________________
batch_normalization_4 (Batch (None, 394)               1576      
_________________________________________________________________
dropout_4 (Dropout)          (None, 394)               0         
_________________________________________________________________
dense_6 (Dense)              (None, 23)                9085      
=================================================================
Total params: 646,359
Trainable params: 642,419
Non-trainable params: 3,940
_________________________________________________________________
None 



ModelANN_Best_val_loss_04.h5 

WARNING:tensorflow:Error in loading the saved optimizer state. As a result, your model is starting with a freshly initialized optimizer.
Training Accuracy_score: 99.35 %
…
